…
es: If the parameter name does not include "lora", it sets requires_grad to False, freezing the parameter (preventing it from being updated during training).&lt;/P&gt;&lt;/LI&gt;&lt;LI&gt;&lt;P&gt;Enable Gradients for LoRA: If the parameter name includes "lora", it sets requires_grad to True, allowing it to be updated during training.&lt;/P&gt;&lt;/LI&gt;&lt;/UL&gt;&lt;/LI&gt;&lt;/UL&gt;&lt;/LI&gt;&lt;/UL&gt;&lt;P&gt;Take a look at the Pre-Trained model:&lt;/P&gt;&lt;P&gt;&amp;nbsp;&lt;/P&gt;&lt;pre class="lia-code-sample language-bash"&gt;&lt;code&gt;ShakespeareanLanguagelModel(
  (embeddings): Embedding(1024, 4)
  (position_embeddings): Embedding(16, 4)
  (transformer_blocks): Sequential(
    (0): TransformerBlock(
      (self_attn): MultiHeadAttention(
        (heads): ModuleList(
          (0-1): 2 x Head(
            (key): Linear(in_features=4, out_features=2, bias=False)
            (query): Linear(in_features=4, out_features=2, bias=False)
            (value): Linear(in_features=4, out_features=2, bias=False)
            (dropout): Dropout(p=0.2, inplace=False)
          )
        )
        (projection): Linear(in_features=4, out_features=4, bias=True)
        (dropout): Dropout(p=0.2, inplace=False)
      )
      (feed_forward): FeedForward(
        (ffnet): Sequential(
          (0): Linear(in_features=4, out_features=16, bias=True)
          (1): ReLU(inplace=True)
          (2): Linear(in_features=16, out_features=4, bias=True)
          (3): Dropout(p=0.2, inplace=False)
        )
      )
      (layer_norm1): LayerNorm((4,), eps=1e-05, elementwise_affine=True)
      (layer_norm2): LayerNorm((4,), eps=1e-05, elementwise_affine=True)
    )
    (1): TransformerBlock(
      (self_attn): MultiHeadAttention(
        (heads): ModuleList(
          (0-1): 2 x Head(
            (key): Linear(in_features=4, out_features=2, bias=False)
            (query): Linear(in_features=4, out_features=2, bias=False)
            (value): Linear(in_features=4, out_features=2, bias=False)
            (dropout): Dropout(p=0.2, inplace=False)
          )
        )
        (projection): Linear(in_features=4, out_features=4, bias=True)
        (dropout): Dropout(p=0.2, inplace=False)
      )
      (feed_forward): FeedForward(
        (ffnet): Sequential(
          (0): Linear(in_features=4, out_features=16, bias=True)
          (1): ReLU(inplace=True)
          (2): Linear(in_features=16, out_features=4, bias=True)
          (3): Dropout(p=0.2, inplace=False)
        )
      )
      (layer_norm1): LayerNorm((4,), eps=1e-05, elementwise_affine=True)
      (layer_norm2): LayerNorm((4,), eps=1e-05, elementwise_affine=True)
    )
  )
  (layer_norm): LayerNorm((4,), eps=1e-05, elementwise_affine=True)
  (output): Linear(in_features=4, out_features=1024, bias=True)
)&lt;/code&gt;&lt;/pre&gt;&lt;P&gt;&amp;nbsp;&lt;/P&gt;&lt;P&gt;Now, after applying LoRA, notice the key differences:&lt;/P&gt;&lt;P&gt;&amp;nbsp;&lt;/P&gt;&lt;pre class="lia-code-sample language-bash"&gt;&lt;code&gt;PEFTModel(
    (embeddings): Embedding(1024, 4)
    (position_embeddings): Embedding(16, 4)
    (transformer_blocks): Sequential(
      (0): TransformerBlock(
        (self_attn): MultiHeadAttention(
          (heads): ModuleList(
            (0-1): 2 x Head(
              (key): Linear(in_features=4, out_features=2, bias=False)
              (query): Linear(in_features=4, out_features=2, bias=False)
              (value): Linear(in_features=4, out_features=2, bias=False)
              (dropout): Dropout(p=0.2, inplace=False)
            )
          )
          (projection): Linear(in_features=4, out_features=4, bias=True)
          (dropout): Dropout(p=0.2, inplace=False)
        )
        (feed_forward): FeedForward(
          (ffnet): Sequential(
            (0): Linear(in_features=4, out_features=16, bias=True)
            (1): ReLU(inplace=True)
            (2): Linear(in_features=16, out_features=4, bias=True)
            (3): Dropout(p=0.2, inplace=False)
          )
        )
        (layer_norm1): LayerNorm((4,), eps=1e-05, elementwise_affine=True)
        (layer_norm2): LayerNorm((4,), eps=1e-05, elementwise_affine=True)
      )
      (1): TransformerBlock(
        (self_attn): MultiHeadAttention(
          (heads): ModuleList(
            (0-1): 2 x Head(
              (key): Linear(in_features=4, out_features=2, bias=False)
              (query): Linear(in_features=4, out_features=2, bias=False)
              (value): Linear(in_features=4, out_features=2, bias=False)
              (dropout): Dropout(p=0.2, inplace=False)
            )
          )
          (projection): Linear(in_features=4, out_features=4, bias=True)
          (dropout): Dropout(p=0.2, inplace=False)
        )
        (feed_forward): FeedForward(
          (ffnet): Sequential(
            (0): Linear(in_features=4, out_features=16, bias=True)
            (1): ReLU(inplace=True)
            (2): Linear(in_features=16, out_features=4, bias=True)
            (3): Dropout(p=0.2, inplace=False)
          )
        )
        (layer_norm1): LayerNorm((4,), eps=1e-05, elementwise_affine=True)
        (layer_norm2): LayerNorm((4,), eps=1e-05, elementwise_affine=True)
      )
    )
    (layer_norm): LayerNorm((4,), eps=1e-05, elementwise_affine=True)
    (output): Linear(in_features=4, out_features=1024, bias=True)
  )
  (lora_attn): MultiHeadAttention(
    (heads): ModuleList(
      (0-1): 2 x Head(
        (key): LinearWithLoRA(
          (linear): Linear(in_features=4, out_features=2, bias=False)
          (lora): LoRALayer()
        )
        (query): LinearWithLoRA(
          (linear): Linear(in_features=4, out_features=2, bias=False)
          (lora): LoRALayer()
        )
        (value): LinearWithLoRA(
          (linear): Linear(in_features=4, out_features=2, bias=False)
          (lora): LoRALayer()
        )
        (dropout): Dropout(p=0.2, inplace=False)
      )
    )
    (projection): Linear(in_features=4, out_features=4, bias=True)
    (dropout): Dropout(p=0.2, inplace=False)
    (o_LoRA): LinearWithLoRA(
      (linear): Linear(in_features=4, out_features=4, bias=False)
      (lora): LoRALayer()
    )
  )
  (lora_adaptation): LinearWithLoRA(
    (linear): Linear(in_features=4, out_features=4, bias=False)
    (lora): LoRALayer()
  )
)&lt;/code&gt;&lt;/pre&gt;&lt;P&gt;&amp;nbsp;&lt;/P&gt;&lt;UL&gt;&lt;LI&gt;&lt;STRONG&gt;LoRA Integration&lt;/STRONG&gt;:&lt;UL&gt;&lt;LI&gt;PEFTModel integrates LoRA into the attention and feedforward layers, whereas ShakespeareanLanguageModel uses standard layers.&lt;/LI&gt;&lt;/UL&gt;&lt;/LI&gt;&lt;LI&gt;&lt;STRONG&gt;Parame
…
